…
2021-04-01 08:37:11.173725: I tensorflow/compiler/jit/xla_gpu_device.cc:99] Not creating XLA devices, tf_xla_enable_xla_devices not set
2021-04-01 08:37:11.173741: I tensorflow/core/common_runtime/gpu/gpu_device.cc:1261] Device interconnect StreamExecutor with strength 1 edge matrix:
2021-04-01 08:37:11.173748: I tensorflow/core/common_runtime/gpu/gpu_device.cc:1267]      
Model: "model"
__________________________________________________________________________________________________
Layer (type)                    Output Shape         Param #     Connected to                     
==================================================================================================
img (InputLayer)                [(None, 512, 512, 3) 0                                            
__________________________________________________________________________________________________
conv2d (Conv2D)                 (None, 512, 512, 16) 448         img[0][0]                        
__________________________________________________________________________________________________
activation (Activation)         (None, 512, 512, 16) 0           conv2d[0][0]                     
__________________________________________________________________________________________________
conv2d_1 (Conv2D)               (None, 512, 512, 16) 2320        activation[0][0]                 
__________________________________________________________________________________________________
activation_1 (Activation)       (None, 512, 512, 16) 0           conv2d_1[0][0]                   
__________________________________________________________________________________________________
conv2d_2 (Conv2D)               (None, 512, 512, 16) 2320        activation_1[0][0]               
__________________________________________________________________________________________________
activation_2 (Activation)       (None, 512, 512, 16) 0           conv2d_2[0][0]                   
__________________________________________________________________________________________________
max_pooling2d (MaxPooling2D)    (None, 256, 256, 16) 0           activation_2[0][0]               
__________________________________________________________________________________________________
conv2d_3 (Conv2D)               (None, 256, 256, 32) 4640        max_pooling2d[0][0]              
__________________________________________________________________________________________________
activation_3 (Activation)       (None, 256, 256, 32) 0           conv2d_3[0][0]                   
__________________________________________________________________________________________________
conv2d_4 (Conv2D)               (None, 256, 256, 32) 9248        activation_3[0][0]               
__________________________________________________________________________________________________
activation_4 (Activation)       (None, 256, 256, 32) 0           conv2d_4[0][0]                   
__________________________________________________________________________________________________
conv2d_5 (Conv2D)               (None, 256, 256, 32) 9248        activation_4[0][0]               
__________________________________________________________________________________________________
activation_5 (Activation)       (None, 256, 256, 32) 0           conv2d_5[0][0]                   
__________________________________________________________________________________________________
max_pooling2d_1 (MaxPooling2D)  (None, 128, 128, 32) 0           activation_5[0][0]               
__________________________________________________________________________________________________
conv2d_6 (Conv2D)               (None, 128, 128, 64) 18496       max_pooling2d_1[0][0]            
__________________________________________________________________________________________________
activation_6 (Activation)       (None, 128, 128, 64) 0           conv2d_6[0][0]                   
__________________________________________________________________________________________________
conv2d_7 (Conv2D)               (None, 128, 128, 64) 36928       activation_6[0][0]               
__________________________________________________________________________________________________
activation_7 (Activation)       (None, 128, 128, 64) 0           conv2d_7[0][0]                   
__________________________________________________________________________________________________
conv2d_8 (Conv2D)               (None, 128, 128, 64) 36928       activation_7[0][0]               
__________________________________________________________________________________________________
activation_8 (Activation)       (None, 128, 128, 64) 0           conv2d_8[0][0]                   
__________________________________________________________________________________________________
max_pooling2d_2 (MaxPooling2D)  (None, 64, 64, 64)   0           activation_8[0][0]               
__________________________________________________________________________________________________
conv2d_9 (Conv2D)               (None, 64, 64, 128)  73856       max_pooling2d_2[0][0]            
__________________________________________________________________________________________________
activation_9 (Activation)       (None, 64, 64, 128)  0           conv2d_9[0][0]                   
__________________________________________________________________________________________________
conv2d_10 (Conv2D)              (None, 64, 64, 128)  147584      activation_9[0][0]               
__________________________________________________________________________________________________
activation_10 (Activation)      (None, 64, 64, 128)  0           conv2d_10[0][0]                  
__________________________________________________________________________________________________
conv2d_11 (Conv2D)              (None, 64, 64, 128)  147584      activation_10[0][0]              
__________________________________________________________________________________________________
activation_11 (Activation)      (None, 64, 64, 128)  0           conv2d_11[0][0]                  
__________________________________________________________________________________________________
max_pooling2d_3 (MaxPooling2D)  (None, 32, 32, 128)  0           activation_11[0][0]              
__________________________________________________________________________________________________
conv2d_12 (Conv2D)              (None, 32, 32, 256)  295168      max_pooling2d_3[0][0]            
__________________________________________________________________________________________________
activation_12 (Activation)      (None, 32, 32, 256)  0           conv2d_12[0][0]                  
__________________________________________________________________________________________________
conv2d_13 (Conv2D)              (None, 32, 32, 256)  590080      activation_12[0][0]              
__________________________________________________________________________________________________
activation_13 (Activation)      (None, 32, 32, 256)  0           conv2d_13[0][0]                  
__________________________________________________________________________________________________
conv2d_14 (Conv2D)              (None, 32, 32, 256)  590080      activation_13[0][0]              
__________________________________________________________________________________________________
activation_14 (Activation)      (None, 32, 32, 256)  0           conv2d_14[0][0]                  
__________________________________________________________________________________________________
max_pooling2d_4 (MaxPooling2D)  (None, 16, 16, 256)  0           activation_14[0][0]              
__________________________________________________________________________________________________
conv2d_15 (Conv2D)              (None, 16, 16, 512)  1180160     max_pooling2d_4[0][0]            
__________________________________________________________________________________________________
activation_15 (Activation)      (None, 16, 16, 512)  0           conv2d_15[0][0]                  
__________________________________________________________________________________________________
conv2d_16 (Conv2D)              (None, 16, 16, 512)  2359808     activation_15[0][0]              
__________________________________________________________________________________________________
activation_16 (Activation)      (None, 16, 16, 512)  0           conv2d_16[0][0]                  
__________________________________________________________________________________________________
conv2d_17 (Conv2D)              (None, 16, 16, 512)  2359808     activation_16[0][0]              
__________________________________________________________________________________________________
activation_17 (Activation)      (None, 16, 16, 512)  0           conv2d_17[0][0]                  
__________________________________________________________________________________________________
conv2d_transpose (Conv2DTranspo (None, 32, 32, 256)  1179904     activation_17[0][0]              
__________________________________________________________________________________________________
concatenate (Concatenate)       (None, 32, 32, 512)  0           conv2d_transpose[0][0]           
                                                                 activation_14[0][0]              
__________________________________________________________________________________________________
conv2d_18 (Conv2D)              (None, 32, 32, 128)  589952      concatenate[0][0]                
__________________________________________________________________________________________________
activation_18 (Activation)      (None, 32, 32, 128)  0           conv2d_18[0][0]                  
__________________________________________________________________________________________________
conv2d_19 (Conv2D)              (None, 32, 32, 128)  147584      activation_18[0][0]              
__________________________________________________________________________________________________
activation_19 (Activation)      (None, 32, 32, 128)  0           conv2d_19[0][0]                  
__________________________________________________________________________________________________
conv2d_20 (Conv2D)              (None, 32, 32, 128)  147584      activation_19[0][0]              
__________________________________________________________________________________________________
activation_20 (Activation)      (None, 32, 32, 128)  0           conv2d_20[0][0]                  
__________________________________________________________________________________________________
conv2d_transpose_1 (Conv2DTrans (None, 64, 64, 128)  147584      activation_20[0][0]              
__________________________________________________________________________________________________
concatenate_1 (Concatenate)     (None, 64, 64, 256)  0           conv2d_transpose_1[0][0]         
                                                                 activation_11[0][0]              
__________________________________________________________________________________________________
conv2d_21 (Conv2D)              (None, 64, 64, 128)  295040      concatenate_1[0][0]              
__________________________________________________________________________________________________
activation_21 (Activation)      (None, 64, 64, 128)  0           conv2d_21[0][0]                  
__________________________________________________________________________________________________
conv2d_22 (Conv2D)              (None, 64, 64, 128)  147584      activation_21[0][0]              
__________________________________________________________________________________________________
activation_22 (Activation)      (None, 64, 64, 128)  0           conv2d_22[0][0]                  
__________________________________________________________________________________________________
conv2d_23 (Conv2D)              (None, 64, 64, 128)  147584      activation_22[0][0]              
__________________________________________________________________________________________________
activation_23 (Activation)      (None, 64, 64, 128)  0           conv2d_23[0][0]                  
__________________________________________________________________________________________________
conv2d_transpose_2 (Conv2DTrans (None, 128, 128, 64) 73792       activation_23[0][0]              
__________________________________________________________________________________________________
concatenate_2 (Concatenate)     (None, 128, 128, 128 0           conv2d_transpose_2[0][0]         
                                                                 activation_8[0][0]               
__________________________________________________________________________________________________
conv2d_24 (Conv2D)              (None, 128, 128, 64) 73792       concatenate_2[0][0]              
__________________________________________________________________________________________________
activation_24 (Activation)      (None, 128, 128, 64) 0           conv2d_24[0][0]                  
__________________________________________________________________________________________________
conv2d_25 (Conv2D)              (None, 128, 128, 64) 36928       activation_24[0][0]              
__________________________________________________________________________________________________
activation_25 (Activation)      (None, 128, 128, 64) 0           conv2d_25[0][0]                  
__________________________________________________________________________________________________
conv2d_26 (Conv2D)              (None, 128, 128, 64) 36928       activation_25[0][0]              
__________________________________________________________________________________________________
activation_26 (Activation)      (None, 128, 128, 64) 0           conv2d_26[0][0]                  
__________________________________________________________________________________________________
conv2d_transpose_3 (Conv2DTrans (None, 256, 256, 32) 18464       activation_26[0][0]              
__________________________________________________________________________________________________
concatenate_3 (Concatenate)     (None, 256, 256, 64) 0           conv2d_transpose_3[0][0]         
                                                                 activation_5[0][0]               
__________________________________________________________________________________________________
conv2d_27 (Conv2D)              (None, 256, 256, 32) 18464       concatenate_3[0][0]              
__________________________________________________________________________________________________
activation_27 (Activation)      (None, 256, 256, 32) 0           conv2d_27[0][0]                  
__________________________________________________________________________________________________
conv2d_28 (Conv2D)              (None, 256, 256, 32) 9248        activation_27[0][0]              
__________________________________________________________________________________________________
activation_28 (Activation)      (None, 256, 256, 32) 0           conv2d_28[0][0]                  
__________________________________________________________________________________________________
conv2d_29 (Conv2D)              (None, 256, 256, 32) 9248        activation_28[0][0]              
__________________________________________________________________________________________________
activation_29 (Activation)      (None, 256, 256, 32) 0           conv2d_29[0][0]                  
__________________________________________________________________________________________________
conv2d_transpose_4 (Conv2DTrans (None, 512, 512, 16) 4624        activation_29[0][0]              
__________________________________________________________________________________________________
concatenate_4 (Concatenate)     (None, 512, 512, 32) 0           conv2d_transpose_4[0][0]         
                                                                 activation_2[0][0]               
__________________________________________________________________________________________________
conv2d_30 (Conv2D)              (None, 512, 512, 16) 4624        concatenate_4[0][0]              
__________________________________________________________________________________________________
activation_30 (Activation)      (None, 512, 512, 16) 0           conv2d_30[0][0]                  
__________________________________________________________________________________________________
conv2d_31 (Conv2D)              (None, 512, 512, 16) 2320        activation_30[0][0]              
__________________________________________________________________________________________________
activation_31 (Activation)      (None, 512, 512, 16) 0           conv2d_31[0][0]                  
__________________________________________________________________________________________________
conv2d_32 (Conv2D)              (None, 512, 512, 16) 2320        activation_31[0][0]              
__________________________________________________________________________________________________
activation_32 (Activation)      (None, 512, 512, 16) 0           conv2d_32[0][0]                  
__________________________________________________________________________________________________
conv2d_33 (Conv2D)              (None, 512, 512, 12) 204         activation_32[0][0]              
==================================================================================================
Total params: 10,958,476
Trainable params: 10,958,476
Non-trainable params: 0
__________________________________________________________________________________________________
None
veronika@kamis-nn01:~/radiIzvanka_QAApproved/probe$ vim proba3.py 
veronika@kamis-nn01:~/radiIzvanka_QAApproved/probe$ python3 proba3.py 
…
2021-04-01 08:54:21.338363: I tensorflow/compiler/jit/xla_gpu_device.cc:99] Not creating XLA devices, tf_xla_enable_xla_devices not set
2021-04-01 08:54:21.338379: I tensorflow/core/common_runtime/gpu/gpu_device.cc:1261] Device interconnect StreamExecutor with strength 1 edge matrix:
2021-04-01 08:54:21.338386: I tensorflow/core/common_runtime/gpu/gpu_device.cc:1267]      
Model: "model"
__________________________________________________________________________________________________
Layer (type)                    Output Shape         Param #     Connected to                     
==================================================================================================
img (InputLayer)                [(None, 512, 512, 3) 0                                            
__________________________________________________________________________________________________
conv2d (Conv2D)                 (None, 512, 512, 16) 448         img[0][0]                        
__________________________________________________________________________________________________
activation (Activation)         (None, 512, 512, 16) 0           conv2d[0][0]                     
__________________________________________________________________________________________________
conv2d_1 (Conv2D)               (None, 512, 512, 16) 2320        activation[0][0]                 
__________________________________________________________________________________________________
activation_1 (Activation)       (None, 512, 512, 16) 0           conv2d_1[0][0]                   
__________________________________________________________________________________________________
conv2d_2 (Conv2D)               (None, 512, 512, 16) 2320        activation_1[0][0]               
__________________________________________________________________________________________________
activation_2 (Activation)       (None, 512, 512, 16) 0           conv2d_2[0][0]                   
__________________________________________________________________________________________________
max_pooling2d (MaxPooling2D)    (None, 256, 256, 16) 0           activation_2[0][0]               
__________________________________________________________________________________________________
conv2d_3 (Conv2D)               (None, 256, 256, 32) 4640        max_pooling2d[0][0]              
__________________________________________________________________________________________________
activation_3 (Activation)       (None, 256, 256, 32) 0           conv2d_3[0][0]                   
__________________________________________________________________________________________________
conv2d_4 (Conv2D)               (None, 256, 256, 32) 9248        activation_3[0][0]               
__________________________________________________________________________________________________
activation_4 (Activation)       (None, 256, 256, 32) 0           conv2d_4[0][0]                   
__________________________________________________________________________________________________
conv2d_5 (Conv2D)               (None, 256, 256, 32) 9248        activation_4[0][0]               
__________________________________________________________________________________________________
activation_5 (Activation)       (None, 256, 256, 32) 0           conv2d_5[0][0]                   
__________________________________________________________________________________________________
max_pooling2d_1 (MaxPooling2D)  (None, 128, 128, 32) 0           activation_5[0][0]               
__________________________________________________________________________________________________
conv2d_6 (Conv2D)               (None, 128, 128, 64) 18496       max_pooling2d_1[0][0]            
__________________________________________________________________________________________________
activation_6 (Activation)       (None, 128, 128, 64) 0           conv2d_6[0][0]                   
__________________________________________________________________________________________________
conv2d_7 (Conv2D)               (None, 128, 128, 64) 36928       activation_6[0][0]               
__________________________________________________________________________________________________
activation_7 (Activation)       (None, 128, 128, 64) 0           conv2d_7[0][0]                   
__________________________________________________________________________________________________
conv2d_8 (Conv2D)               (None, 128, 128, 64) 36928       activation_7[0][0]               
__________________________________________________________________________________________________
activation_8 (Activation)       (None, 128, 128, 64) 0           conv2d_8[0][0]                   
__________________________________________________________________________________________________
max_pooling2d_2 (MaxPooling2D)  (None, 64, 64, 64)   0           activation_8[0][0]               
__________________________________________________________________________________________________
conv2d_9 (Conv2D)               (None, 64, 64, 128)  73856       max_pooling2d_2[0][0]            
__________________________________________________________________________________________________
activation_9 (Activation)       (None, 64, 64, 128)  0           conv2d_9[0][0]                   
__________________________________________________________________________________________________
conv2d_10 (Conv2D)              (None, 64, 64, 128)  147584      activation_9[0][0]               
__________________________________________________________________________________________________
activation_10 (Activation)      (None, 64, 64, 128)  0           conv2d_10[0][0]                  
__________________________________________________________________________________________________
conv2d_11 (Conv2D)              (None, 64, 64, 128)  147584      activation_10[0][0]              
__________________________________________________________________________________________________
activation_11 (Activation)      (None, 64, 64, 128)  0           conv2d_11[0][0]                  
__________________________________________________________________________________________________
max_pooling2d_3 (MaxPooling2D)  (None, 32, 32, 128)  0           activation_11[0][0]              
__________________________________________________________________________________________________
conv2d_12 (Conv2D)              (None, 32, 32, 256)  295168      max_pooling2d_3[0][0]            
__________________________________________________________________________________________________
activation_12 (Activation)      (None, 32, 32, 256)  0           conv2d_12[0][0]                  
__________________________________________________________________________________________________
conv2d_13 (Conv2D)              (None, 32, 32, 256)  590080      activation_12[0][0]              
__________________________________________________________________________________________________
activation_13 (Activation)      (None, 32, 32, 256)  0           conv2d_13[0][0]                  
__________________________________________________________________________________________________
conv2d_14 (Conv2D)              (None, 32, 32, 256)  590080      activation_13[0][0]              
__________________________________________________________________________________________________
activation_14 (Activation)      (None, 32, 32, 256)  0           conv2d_14[0][0]                  
__________________________________________________________________________________________________
max_pooling2d_4 (MaxPooling2D)  (None, 16, 16, 256)  0           activation_14[0][0]              
__________________________________________________________________________________________________
conv2d_15 (Conv2D)              (None, 16, 16, 512)  1180160     max_pooling2d_4[0][0]            
__________________________________________________________________________________________________
activation_15 (Activation)      (None, 16, 16, 512)  0           conv2d_15[0][0]                  
__________________________________________________________________________________________________
conv2d_16 (Conv2D)              (None, 16, 16, 512)  2359808     activation_15[0][0]              
__________________________________________________________________________________________________
activation_16 (Activation)      (None, 16, 16, 512)  0           conv2d_16[0][0]                  
__________________________________________________________________________________________________
conv2d_17 (Conv2D)              (None, 16, 16, 512)  2359808     activation_16[0][0]              
__________________________________________________________________________________________________
activation_17 (Activation)      (None, 16, 16, 512)  0           conv2d_17[0][0]                  
__________________________________________________________________________________________________
conv2d_transpose (Conv2DTranspo (None, 32, 32, 256)  1179904     activation_17[0][0]              
__________________________________________________________________________________________________
concatenate (Concatenate)       (None, 32, 32, 512)  0           conv2d_transpose[0][0]           
                                                                 activation_14[0][0]              
__________________________________________________________________________________________________
conv2d_18 (Conv2D)              (None, 32, 32, 128)  589952      concatenate[0][0]                
__________________________________________________________________________________________________
activation_18 (Activation)      (None, 32, 32, 128)  0           conv2d_18[0][0]                  
__________________________________________________________________________________________________
conv2d_19 (Conv2D)              (None, 32, 32, 128)  147584      activation_18[0][0]              
__________________________________________________________________________________________________
activation_19 (Activation)      (None, 32, 32, 128)  0           conv2d_19[0][0]                  
__________________________________________________________________________________________________
conv2d_20 (Conv2D)              (None, 32, 32, 128)  147584      activation_19[0][0]              
__________________________________________________________________________________________________
activation_20 (Activation)      (None, 32, 32, 128)  0           conv2d_20[0][0]                  
__________________________________________________________________________________________________
conv2d_transpose_1 (Conv2DTrans (None, 64, 64, 128)  147584      activation_20[0][0]              
__________________________________________________________________________________________________
concatenate_1 (Concatenate)     (None, 64, 64, 256)  0           conv2d_transpose_1[0][0]         
                                                                 activation_11[0][0]              
__________________________________________________________________________________________________
conv2d_21 (Conv2D)              (None, 64, 64, 128)  295040      concatenate_1[0][0]              
__________________________________________________________________________________________________
activation_21 (Activation)      (None, 64, 64, 128)  0           conv2d_21[0][0]                  
__________________________________________________________________________________________________
conv2d_22 (Conv2D)              (None, 64, 64, 128)  147584      activation_21[0][0]              
__________________________________________________________________________________________________
activation_22 (Activation)      (None, 64, 64, 128)  0           conv2d_22[0][0]                  
__________________________________________________________________________________________________
conv2d_23 (Conv2D)              (None, 64, 64, 128)  147584      activation_22[0][0]              
__________________________________________________________________________________________________
activation_23 (Activation)      (None, 64, 64, 128)  0           conv2d_23[0][0]                  
__________________________________________________________________________________________________
conv2d_transpose_2 (Conv2DTrans (None, 128, 128, 64) 73792       activation_23[0][0]              
__________________________________________________________________________________________________
concatenate_2 (Concatenate)     (None, 128, 128, 128 0           conv2d_transpose_2[0][0]         
                                                                 activation_8[0][0]               
__________________________________________________________________________________________________
conv2d_24 (Conv2D)              (None, 128, 128, 64) 73792       concatenate_2[0][0]              
__________________________________________________________________________________________________
activation_24 (Activation)      (None, 128, 128, 64) 0           conv2d_24[0][0]                  
__________________________________________________________________________________________________
conv2d_25 (Conv2D)              (None, 128, 128, 64) 36928       activation_24[0][0]              
__________________________________________________________________________________________________
activation_25 (Activation)      (None, 128, 128, 64) 0           conv2d_25[0][0]                  
__________________________________________________________________________________________________
conv2d_26 (Conv2D)              (None, 128, 128, 64) 36928       activation_25[0][0]              
__________________________________________________________________________________________________
activation_26 (Activation)      (None, 128, 128, 64) 0           conv2d_26[0][0]                  
__________________________________________________________________________________________________
conv2d_transpose_3 (Conv2DTrans (None, 256, 256, 32) 18464       activation_26[0][0]              
__________________________________________________________________________________________________
concatenate_3 (Concatenate)     (None, 256, 256, 64) 0           conv2d_transpose_3[0][0]         
                                                                 activation_5[0][0]               
__________________________________________________________________________________________________
conv2d_27 (Conv2D)              (None, 256, 256, 32) 18464       concatenate_3[0][0]              
__________________________________________________________________________________________________
activation_27 (Activation)      (None, 256, 256, 32) 0           conv2d_27[0][0]                  
__________________________________________________________________________________________________
conv2d_28 (Conv2D)              (None, 256, 256, 32) 9248        activation_27[0][0]              
__________________________________________________________________________________________________
activation_28 (Activation)      (None, 256, 256, 32) 0           conv2d_28[0][0]                  
__________________________________________________________________________________________________
conv2d_29 (Conv2D)              (None, 256, 256, 32) 9248        activation_28[0][0]              
__________________________________________________________________________________________________
activation_29 (Activation)      (None, 256, 256, 32) 0           conv2d_29[0][0]                  
__________________________________________________________________________________________________
conv2d_transpose_4 (Conv2DTrans (None, 512, 512, 16) 4624        activation_29[0][0]              
__________________________________________________________________________________________________
concatenate_4 (Concatenate)     (None, 512, 512, 32) 0           conv2d_transpose_4[0][0]         
                                                                 activation_2[0][0]               
__________________________________________________________________________________________________
conv2d_30 (Conv2D)              (None, 512, 512, 16) 4624        concatenate_4[0][0]              
__________________________________________________________________________________________________
activation_30 (Activation)      (None, 512, 512, 16) 0           conv2d_30[0][0]                  
__________________________________________________________________________________________________
conv2d_31 (Conv2D)              (None, 512, 512, 16) 2320        activation_30[0][0]              
__________________________________________________________________________________________________
activation_31 (Activation)      (None, 512, 512, 16) 0           conv2d_31[0][0]                  
__________________________________________________________________________________________________
conv2d_32 (Conv2D)              (None, 512, 512, 16) 2320        activation_31[0][0]              
__________________________________________________________________________________________________
activation_32 (Activation)      (None, 512, 512, 16) 0           conv2d_32[0][0]                  
__________________________________________________________________________________________________
conv2d_33 (Conv2D)              (None, 512, 512, 3)  51          activation_32[0][0]              
==================================================================================================
Total params: 10,958,323
Trainable params: 10,958,323
Non-trainable params: 0
__________________________________________________________________________________________________
None
2021-04-01 08:54:22.297910: I tensorflow/compiler/mlir/mlir_graph_optimization_pass.cc:116] None of the MLIR optimization passes are enabled (registered 2)
…
2021-04-01 12:31:37.081255: I tensorflow/compiler/jit/xla_gpu_device.cc:99] Not creating XLA devices, tf_xla_enable_xla_devices not set
2021-04-01 12:31:37.081271: I tensorflow/core/common_runtime/gpu/gpu_device.cc:1261] Device interconnect StreamExecutor with strength 1 edge matrix:
2021-04-01 12:31:37.081277: I tensorflow/core/common_runtime/gpu/gpu_device.cc:1267]      
Model: "model"
__________________________________________________________________________________________________
Layer (type)                    Output Shape         Param #     Connected to                     
==================================================================================================
img (InputLayer)                [(None, 512, 512, 3) 0                                            
__________________________________________________________________________________________________
separable_conv2d (SeparableConv (None, 512, 512, 16) 91          img[0][0]                        
__________________________________________________________________________________________________
activation (Activation)         (None, 512, 512, 16) 0           separable_conv2d[0][0]           
__________________________________________________________________________________________________
separable_conv2d_1 (SeparableCo (None, 512, 512, 16) 416         activation[0][0]                 
__________________________________________________________________________________________________
activation_1 (Activation)       (None, 512, 512, 16) 0           separable_conv2d_1[0][0]         
__________________________________________________________________________________________________
separable_conv2d_2 (SeparableCo (None, 512, 512, 16) 416         activation_1[0][0]               
__________________________________________________________________________________________________
activation_2 (Activation)       (None, 512, 512, 16) 0           separable_conv2d_2[0][0]         
__________________________________________________________________________________________________
max_pooling2d (MaxPooling2D)    (None, 256, 256, 16) 0           activation_2[0][0]               
__________________________________________________________________________________________________
separable_conv2d_3 (SeparableCo (None, 256, 256, 32) 688         max_pooling2d[0][0]              
__________________________________________________________________________________________________
activation_3 (Activation)       (None, 256, 256, 32) 0           separable_conv2d_3[0][0]         
__________________________________________________________________________________________________
separable_conv2d_4 (SeparableCo (None, 256, 256, 32) 1344        activation_3[0][0]               
__________________________________________________________________________________________________
activation_4 (Activation)       (None, 256, 256, 32) 0           separable_conv2d_4[0][0]         
__________________________________________________________________________________________________
separable_conv2d_5 (SeparableCo (None, 256, 256, 32) 1344        activation_4[0][0]               
__________________________________________________________________________________________________
activation_5 (Activation)       (None, 256, 256, 32) 0           separable_conv2d_5[0][0]         
__________________________________________________________________________________________________
max_pooling2d_1 (MaxPooling2D)  (None, 128, 128, 32) 0           activation_5[0][0]               
__________________________________________________________________________________________________
separable_conv2d_6 (SeparableCo (None, 128, 128, 64) 2400        max_pooling2d_1[0][0]            
__________________________________________________________________________________________________
activation_6 (Activation)       (None, 128, 128, 64) 0           separable_conv2d_6[0][0]         
__________________________________________________________________________________________________
separable_conv2d_7 (SeparableCo (None, 128, 128, 64) 4736        activation_6[0][0]               
__________________________________________________________________________________________________
activation_7 (Activation)       (None, 128, 128, 64) 0           separable_conv2d_7[0][0]         
__________________________________________________________________________________________________
separable_conv2d_8 (SeparableCo (None, 128, 128, 64) 4736        activation_7[0][0]               
__________________________________________________________________________________________________
activation_8 (Activation)       (None, 128, 128, 64) 0           separable_conv2d_8[0][0]         
__________________________________________________________________________________________________
max_pooling2d_2 (MaxPooling2D)  (None, 64, 64, 64)   0           activation_8[0][0]               
__________________________________________________________________________________________________
separable_conv2d_9 (SeparableCo (None, 64, 64, 128)  8896        max_pooling2d_2[0][0]            
__________________________________________________________________________________________________
activation_9 (Activation)       (None, 64, 64, 128)  0           separable_conv2d_9[0][0]         
__________________________________________________________________________________________________
separable_conv2d_10 (SeparableC (None, 64, 64, 128)  17664       activation_9[0][0]               
__________________________________________________________________________________________________
activation_10 (Activation)      (None, 64, 64, 128)  0           separable_conv2d_10[0][0]        
__________________________________________________________________________________________________
separable_conv2d_11 (SeparableC (None, 64, 64, 128)  17664       activation_10[0][0]              
__________________________________________________________________________________________________
activation_11 (Activation)      (None, 64, 64, 128)  0           separable_conv2d_11[0][0]        
__________________________________________________________________________________________________
max_pooling2d_3 (MaxPooling2D)  (None, 32, 32, 128)  0           activation_11[0][0]              
__________________________________________________________________________________________________
separable_conv2d_12 (SeparableC (None, 32, 32, 256)  34176       max_pooling2d_3[0][0]            
__________________________________________________________________________________________________
activation_12 (Activation)      (None, 32, 32, 256)  0           separable_conv2d_12[0][0]        
__________________________________________________________________________________________________
separable_conv2d_13 (SeparableC (None, 32, 32, 256)  68096       activation_12[0][0]              
__________________________________________________________________________________________________
activation_13 (Activation)      (None, 32, 32, 256)  0           separable_conv2d_13[0][0]        
__________________________________________________________________________________________________
separable_conv2d_14 (SeparableC (None, 32, 32, 256)  68096       activation_13[0][0]              
__________________________________________________________________________________________________
activation_14 (Activation)      (None, 32, 32, 256)  0           separable_conv2d_14[0][0]        
__________________________________________________________________________________________________
max_pooling2d_4 (MaxPooling2D)  (None, 16, 16, 256)  0           activation_14[0][0]              
__________________________________________________________________________________________________
separable_conv2d_15 (SeparableC (None, 16, 16, 512)  133888      max_pooling2d_4[0][0]            
__________________________________________________________________________________________________
activation_15 (Activation)      (None, 16, 16, 512)  0           separable_conv2d_15[0][0]        
__________________________________________________________________________________________________
separable_conv2d_16 (SeparableC (None, 16, 16, 512)  267264      activation_15[0][0]              
__________________________________________________________________________________________________
activation_16 (Activation)      (None, 16, 16, 512)  0           separable_conv2d_16[0][0]        
__________________________________________________________________________________________________
separable_conv2d_17 (SeparableC (None, 16, 16, 512)  267264      activation_16[0][0]              
__________________________________________________________________________________________________
activation_17 (Activation)      (None, 16, 16, 512)  0           separable_conv2d_17[0][0]        
__________________________________________________________________________________________________
conv2d_transpose (Conv2DTranspo (None, 32, 32, 256)  1179904     activation_17[0][0]              
__________________________________________________________________________________________________
concatenate (Concatenate)       (None, 32, 32, 512)  0           conv2d_transpose[0][0]           
                                                                 activation_14[0][0]              
__________________________________________________________________________________________________
separable_conv2d_18 (SeparableC (None, 32, 32, 128)  70272       concatenate[0][0]                
__________________________________________________________________________________________________
activation_18 (Activation)      (None, 32, 32, 128)  0           separable_conv2d_18[0][0]        
__________________________________________________________________________________________________
separable_conv2d_19 (SeparableC (None, 32, 32, 128)  17664       activation_18[0][0]              
__________________________________________________________________________________________________
activation_19 (Activation)      (None, 32, 32, 128)  0           separable_conv2d_19[0][0]        
__________________________________________________________________________________________________
separable_conv2d_20 (SeparableC (None, 32, 32, 128)  17664       activation_19[0][0]              
__________________________________________________________________________________________________
activation_20 (Activation)      (None, 32, 32, 128)  0           separable_conv2d_20[0][0]        
__________________________________________________________________________________________________
conv2d_transpose_1 (Conv2DTrans (None, 64, 64, 128)  147584      activation_20[0][0]              
__________________________________________________________________________________________________
concatenate_1 (Concatenate)     (None, 64, 64, 256)  0           conv2d_transpose_1[0][0]         
                                                                 activation_11[0][0]              
__________________________________________________________________________________________________
separable_conv2d_21 (SeparableC (None, 64, 64, 128)  35200       concatenate_1[0][0]              
__________________________________________________________________________________________________
activation_21 (Activation)      (None, 64, 64, 128)  0           separable_conv2d_21[0][0]        
__________________________________________________________________________________________________
separable_conv2d_22 (SeparableC (None, 64, 64, 128)  17664       activation_21[0][0]              
__________________________________________________________________________________________________
activation_22 (Activation)      (None, 64, 64, 128)  0           separable_conv2d_22[0][0]        
__________________________________________________________________________________________________
separable_conv2d_23 (SeparableC (None, 64, 64, 128)  17664       activation_22[0][0]              
__________________________________________________________________________________________________
activation_23 (Activation)      (None, 64, 64, 128)  0           separable_conv2d_23[0][0]        
__________________________________________________________________________________________________
conv2d_transpose_2 (Conv2DTrans (None, 128, 128, 64) 73792       activation_23[0][0]              
__________________________________________________________________________________________________
concatenate_2 (Concatenate)     (None, 128, 128, 128 0           conv2d_transpose_2[0][0]         
                                                                 activation_8[0][0]               
__________________________________________________________________________________________________
separable_conv2d_24 (SeparableC (None, 128, 128, 64) 9408        concatenate_2[0][0]              
__________________________________________________________________________________________________
activation_24 (Activation)      (None, 128, 128, 64) 0           separable_conv2d_24[0][0]        
__________________________________________________________________________________________________
separable_conv2d_25 (SeparableC (None, 128, 128, 64) 4736        activation_24[0][0]              
__________________________________________________________________________________________________
activation_25 (Activation)      (None, 128, 128, 64) 0           separable_conv2d_25[0][0]        
__________________________________________________________________________________________________
separable_conv2d_26 (SeparableC (None, 128, 128, 64) 4736        activation_25[0][0]              
__________________________________________________________________________________________________
activation_26 (Activation)      (None, 128, 128, 64) 0           separable_conv2d_26[0][0]        
__________________________________________________________________________________________________
conv2d_transpose_3 (Conv2DTrans (None, 256, 256, 32) 18464       activation_26[0][0]              
__________________________________________________________________________________________________
concatenate_3 (Concatenate)     (None, 256, 256, 64) 0           conv2d_transpose_3[0][0]         
                                                                 activation_5[0][0]               
__________________________________________________________________________________________________
separable_conv2d_27 (SeparableC (None, 256, 256, 32) 2656        concatenate_3[0][0]              
__________________________________________________________________________________________________
activation_27 (Activation)      (None, 256, 256, 32) 0           separable_conv2d_27[0][0]        
__________________________________________________________________________________________________
separable_conv2d_28 (SeparableC (None, 256, 256, 32) 1344        activation_27[0][0]              
__________________________________________________________________________________________________
activation_28 (Activation)      (None, 256, 256, 32) 0           separable_conv2d_28[0][0]        
__________________________________________________________________________________________________
separable_conv2d_29 (SeparableC (None, 256, 256, 32) 1344        activation_28[0][0]              
__________________________________________________________________________________________________
activation_29 (Activation)      (None, 256, 256, 32) 0           separable_conv2d_29[0][0]        
__________________________________________________________________________________________________
conv2d_transpose_4 (Conv2DTrans (None, 512, 512, 16) 4624        activation_29[0][0]              
__________________________________________________________________________________________________
concatenate_4 (Concatenate)     (None, 512, 512, 32) 0           conv2d_transpose_4[0][0]         
                                                                 activation_2[0][0]               
__________________________________________________________________________________________________
separable_conv2d_30 (SeparableC (None, 512, 512, 16) 816         concatenate_4[0][0]              
__________________________________________________________________________________________________
activation_30 (Activation)      (None, 512, 512, 16) 0           separable_conv2d_30[0][0]        
__________________________________________________________________________________________________
separable_conv2d_31 (SeparableC (None, 512, 512, 16) 416         activation_30[0][0]              
__________________________________________________________________________________________________
activation_31 (Activation)      (None, 512, 512, 16) 0           separable_conv2d_31[0][0]        
__________________________________________________________________________________________________
separable_conv2d_32 (SeparableC (None, 512, 512, 16) 416         activation_31[0][0]              
__________________________________________________________________________________________________
activation_32 (Activation)      (None, 512, 512, 16) 0           separable_conv2d_32[0][0]        
__________________________________________________________________________________________________
conv2d (Conv2D)                 (None, 512, 512, 3)  51          activation_32[0][0]              
==================================================================================================
Total params: 2,525,598
Trainable params: 2,525,598
Non-trainable params: 0
__________________________________________________________________________________________________
None
veronika@kamis-nn01:~/radiIzvanka_QAApproved/probe$ vim proba4.py 
veronika@kamis-nn01:~/radiIzvanka_QAApproved/probe$ python3 proba4.py 
…
