…
2021-05-05 11:16:06.789121: I tensorflow/compiler/jit/xla_gpu_device.cc:99] Not creating XLA devices, tf_xla_enable_xla_devices not set
2021-05-05 11:16:06.789135: I tensorflow/core/common_runtime/gpu/gpu_device.cc:1261] Device interconnect StreamExecutor with strength 1 edge matrix:
2021-05-05 11:16:06.789139: I tensorflow/core/common_runtime/gpu/gpu_device.cc:1267]      
Model: "model"
__________________________________________________________________________________________________
Layer (type)                    Output Shape         Param #     Connected to                     
==================================================================================================
img (InputLayer)                [(None, 256, 256, 3) 0                                            
__________________________________________________________________________________________________
separable_conv2d (SeparableConv (None, 256, 256, 16) 91          img[0][0]                        
__________________________________________________________________________________________________
batch_normalization (BatchNorma (None, 256, 256, 16) 64          separable_conv2d[0][0]           
__________________________________________________________________________________________________
activation (Activation)         (None, 256, 256, 16) 0           batch_normalization[0][0]        
__________________________________________________________________________________________________
separable_conv2d_1 (SeparableCo (None, 256, 256, 16) 416         activation[0][0]                 
__________________________________________________________________________________________________
batch_normalization_1 (BatchNor (None, 256, 256, 16) 64          separable_conv2d_1[0][0]         
__________________________________________________________________________________________________
activation_1 (Activation)       (None, 256, 256, 16) 0           batch_normalization_1[0][0]      
__________________________________________________________________________________________________
separable_conv2d_2 (SeparableCo (None, 256, 256, 16) 416         activation_1[0][0]               
__________________________________________________________________________________________________
batch_normalization_2 (BatchNor (None, 256, 256, 16) 64          separable_conv2d_2[0][0]         
__________________________________________________________________________________________________
activation_2 (Activation)       (None, 256, 256, 16) 0           batch_normalization_2[0][0]      
__________________________________________________________________________________________________
max_pooling2d (MaxPooling2D)    (None, 128, 128, 16) 0           activation_2[0][0]               
__________________________________________________________________________________________________
dropout (Dropout)               (None, 128, 128, 16) 0           max_pooling2d[0][0]              
__________________________________________________________________________________________________
separable_conv2d_3 (SeparableCo (None, 128, 128, 32) 688         dropout[0][0]                    
__________________________________________________________________________________________________
batch_normalization_3 (BatchNor (None, 128, 128, 32) 128         separable_conv2d_3[0][0]         
__________________________________________________________________________________________________
activation_3 (Activation)       (None, 128, 128, 32) 0           batch_normalization_3[0][0]      
__________________________________________________________________________________________________
separable_conv2d_4 (SeparableCo (None, 128, 128, 32) 1344        activation_3[0][0]               
__________________________________________________________________________________________________
batch_normalization_4 (BatchNor (None, 128, 128, 32) 128         separable_conv2d_4[0][0]         
__________________________________________________________________________________________________
activation_4 (Activation)       (None, 128, 128, 32) 0           batch_normalization_4[0][0]      
__________________________________________________________________________________________________
separable_conv2d_5 (SeparableCo (None, 128, 128, 32) 1344        activation_4[0][0]               
__________________________________________________________________________________________________
batch_normalization_5 (BatchNor (None, 128, 128, 32) 128         separable_conv2d_5[0][0]         
__________________________________________________________________________________________________
activation_5 (Activation)       (None, 128, 128, 32) 0           batch_normalization_5[0][0]      
__________________________________________________________________________________________________
max_pooling2d_1 (MaxPooling2D)  (None, 64, 64, 32)   0           activation_5[0][0]               
__________________________________________________________________________________________________
dropout_1 (Dropout)             (None, 64, 64, 32)   0           max_pooling2d_1[0][0]            
__________________________________________________________________________________________________
separable_conv2d_6 (SeparableCo (None, 64, 64, 64)   2400        dropout_1[0][0]                  
__________________________________________________________________________________________________
batch_normalization_6 (BatchNor (None, 64, 64, 64)   256         separable_conv2d_6[0][0]         
__________________________________________________________________________________________________
activation_6 (Activation)       (None, 64, 64, 64)   0           batch_normalization_6[0][0]      
__________________________________________________________________________________________________
separable_conv2d_7 (SeparableCo (None, 64, 64, 64)   4736        activation_6[0][0]               
__________________________________________________________________________________________________
batch_normalization_7 (BatchNor (None, 64, 64, 64)   256         separable_conv2d_7[0][0]         
__________________________________________________________________________________________________
activation_7 (Activation)       (None, 64, 64, 64)   0           batch_normalization_7[0][0]      
__________________________________________________________________________________________________
separable_conv2d_8 (SeparableCo (None, 64, 64, 64)   4736        activation_7[0][0]               
__________________________________________________________________________________________________
batch_normalization_8 (BatchNor (None, 64, 64, 64)   256         separable_conv2d_8[0][0]         
__________________________________________________________________________________________________
activation_8 (Activation)       (None, 64, 64, 64)   0           batch_normalization_8[0][0]      
__________________________________________________________________________________________________
max_pooling2d_2 (MaxPooling2D)  (None, 32, 32, 64)   0           activation_8[0][0]               
__________________________________________________________________________________________________
dropout_2 (Dropout)             (None, 32, 32, 64)   0           max_pooling2d_2[0][0]            
__________________________________________________________________________________________________
separable_conv2d_9 (SeparableCo (None, 32, 32, 128)  8896        dropout_2[0][0]                  
__________________________________________________________________________________________________
batch_normalization_9 (BatchNor (None, 32, 32, 128)  512         separable_conv2d_9[0][0]         
__________________________________________________________________________________________________
activation_9 (Activation)       (None, 32, 32, 128)  0           batch_normalization_9[0][0]      
__________________________________________________________________________________________________
separable_conv2d_10 (SeparableC (None, 32, 32, 128)  17664       activation_9[0][0]               
__________________________________________________________________________________________________
batch_normalization_10 (BatchNo (None, 32, 32, 128)  512         separable_conv2d_10[0][0]        
__________________________________________________________________________________________________
activation_10 (Activation)      (None, 32, 32, 128)  0           batch_normalization_10[0][0]     
__________________________________________________________________________________________________
separable_conv2d_11 (SeparableC (None, 32, 32, 128)  17664       activation_10[0][0]              
__________________________________________________________________________________________________
batch_normalization_11 (BatchNo (None, 32, 32, 128)  512         separable_conv2d_11[0][0]        
__________________________________________________________________________________________________
activation_11 (Activation)      (None, 32, 32, 128)  0           batch_normalization_11[0][0]     
__________________________________________________________________________________________________
max_pooling2d_3 (MaxPooling2D)  (None, 16, 16, 128)  0           activation_11[0][0]              
__________________________________________________________________________________________________
dropout_3 (Dropout)             (None, 16, 16, 128)  0           max_pooling2d_3[0][0]            
__________________________________________________________________________________________________
separable_conv2d_12 (SeparableC (None, 16, 16, 256)  34176       dropout_3[0][0]                  
__________________________________________________________________________________________________
batch_normalization_12 (BatchNo (None, 16, 16, 256)  1024        separable_conv2d_12[0][0]        
__________________________________________________________________________________________________
activation_12 (Activation)      (None, 16, 16, 256)  0           batch_normalization_12[0][0]     
__________________________________________________________________________________________________
separable_conv2d_13 (SeparableC (None, 16, 16, 256)  68096       activation_12[0][0]              
__________________________________________________________________________________________________
batch_normalization_13 (BatchNo (None, 16, 16, 256)  1024        separable_conv2d_13[0][0]        
__________________________________________________________________________________________________
activation_13 (Activation)      (None, 16, 16, 256)  0           batch_normalization_13[0][0]     
__________________________________________________________________________________________________
separable_conv2d_14 (SeparableC (None, 16, 16, 256)  68096       activation_13[0][0]              
__________________________________________________________________________________________________
batch_normalization_14 (BatchNo (None, 16, 16, 256)  1024        separable_conv2d_14[0][0]        
__________________________________________________________________________________________________
activation_14 (Activation)      (None, 16, 16, 256)  0           batch_normalization_14[0][0]     
__________________________________________________________________________________________________
conv2d_transpose (Conv2DTranspo (None, 32, 32, 128)  295040      activation_14[0][0]              
__________________________________________________________________________________________________
concatenate (Concatenate)       (None, 32, 32, 256)  0           conv2d_transpose[0][0]           
                                                                 activation_11[0][0]              
__________________________________________________________________________________________________
dropout_4 (Dropout)             (None, 32, 32, 256)  0           concatenate[0][0]                
__________________________________________________________________________________________________
separable_conv2d_15 (SeparableC (None, 32, 32, 128)  35200       dropout_4[0][0]                  
__________________________________________________________________________________________________
batch_normalization_15 (BatchNo (None, 32, 32, 128)  512         separable_conv2d_15[0][0]        
__________________________________________________________________________________________________
activation_15 (Activation)      (None, 32, 32, 128)  0           batch_normalization_15[0][0]     
__________________________________________________________________________________________________
separable_conv2d_16 (SeparableC (None, 32, 32, 128)  17664       activation_15[0][0]              
__________________________________________________________________________________________________
batch_normalization_16 (BatchNo (None, 32, 32, 128)  512         separable_conv2d_16[0][0]        
__________________________________________________________________________________________________
activation_16 (Activation)      (None, 32, 32, 128)  0           batch_normalization_16[0][0]     
__________________________________________________________________________________________________
separable_conv2d_17 (SeparableC (None, 32, 32, 128)  17664       activation_16[0][0]              
__________________________________________________________________________________________________
batch_normalization_17 (BatchNo (None, 32, 32, 128)  512         separable_conv2d_17[0][0]        
__________________________________________________________________________________________________
activation_17 (Activation)      (None, 32, 32, 128)  0           batch_normalization_17[0][0]     
__________________________________________________________________________________________________
conv2d_transpose_1 (Conv2DTrans (None, 64, 64, 64)   73792       activation_17[0][0]              
__________________________________________________________________________________________________
concatenate_1 (Concatenate)     (None, 64, 64, 128)  0           conv2d_transpose_1[0][0]         
                                                                 activation_8[0][0]               
__________________________________________________________________________________________________
dropout_5 (Dropout)             (None, 64, 64, 128)  0           concatenate_1[0][0]              
__________________________________________________________________________________________________
separable_conv2d_18 (SeparableC (None, 64, 64, 64)   9408        dropout_5[0][0]                  
__________________________________________________________________________________________________
batch_normalization_18 (BatchNo (None, 64, 64, 64)   256         separable_conv2d_18[0][0]        
__________________________________________________________________________________________________
activation_18 (Activation)      (None, 64, 64, 64)   0           batch_normalization_18[0][0]     
__________________________________________________________________________________________________
separable_conv2d_19 (SeparableC (None, 64, 64, 64)   4736        activation_18[0][0]              
__________________________________________________________________________________________________
batch_normalization_19 (BatchNo (None, 64, 64, 64)   256         separable_conv2d_19[0][0]        
__________________________________________________________________________________________________
activation_19 (Activation)      (None, 64, 64, 64)   0           batch_normalization_19[0][0]     
__________________________________________________________________________________________________
separable_conv2d_20 (SeparableC (None, 64, 64, 64)   4736        activation_19[0][0]              
__________________________________________________________________________________________________
batch_normalization_20 (BatchNo (None, 64, 64, 64)   256         separable_conv2d_20[0][0]        
__________________________________________________________________________________________________
activation_20 (Activation)      (None, 64, 64, 64)   0           batch_normalization_20[0][0]     
__________________________________________________________________________________________________
conv2d_transpose_2 (Conv2DTrans (None, 128, 128, 32) 18464       activation_20[0][0]              
__________________________________________________________________________________________________
concatenate_2 (Concatenate)     (None, 128, 128, 64) 0           conv2d_transpose_2[0][0]         
                                                                 activation_5[0][0]               
__________________________________________________________________________________________________2021-05-05 11:16:11.728616: I tensorflow/compiler/mlir/mlir_graph_optimization_pass.cc:116] None of the MLIR optimization passes are enabled (registered 2)
2021-05-05 11:16:11.753018: I tensorflow/core/platform/profile_utils/cpu_utils.cc:112] CPU Frequency: 2999955000 Hz

dropout_6 (Dropout)             (None, 128, 128, 64) 0           concatenate_2[0][0]              
__________________________________________________________________________________________________
separable_conv2d_21 (SeparableC (None, 128, 128, 32) 2656        dropout_6[0][0]                  
__________________________________________________________________________________________________
batch_normalization_21 (BatchNo (None, 128, 128, 32) 128         separable_conv2d_21[0][0]        
__________________________________________________________________________________________________
activation_21 (Activation)      (None, 128, 128, 32) 0           batch_normalization_21[0][0]     
__________________________________________________________________________________________________
separable_conv2d_22 (SeparableC (None, 128, 128, 32) 1344        activation_21[0][0]              
__________________________________________________________________________________________________
batch_normalization_22 (BatchNo (None, 128, 128, 32) 128         separable_conv2d_22[0][0]        
__________________________________________________________________________________________________
activation_22 (Activation)      (None, 128, 128, 32) 0           batch_normalization_22[0][0]     
__________________________________________________________________________________________________
separable_conv2d_23 (SeparableC (None, 128, 128, 32) 1344        activation_22[0][0]              
__________________________________________________________________________________________________
batch_normalization_23 (BatchNo (None, 128, 128, 32) 128         separable_conv2d_23[0][0]        
__________________________________________________________________________________________________
activation_23 (Activation)      (None, 128, 128, 32) 0           batch_normalization_23[0][0]     
__________________________________________________________________________________________________
conv2d_transpose_3 (Conv2DTrans (None, 256, 256, 16) 4624        activation_23[0][0]              
__________________________________________________________________________________________________
concatenate_3 (Concatenate)     (None, 256, 256, 32) 0           conv2d_transpose_3[0][0]         
                                                                 activation_2[0][0]               
__________________________________________________________________________________________________
dropout_7 (Dropout)             (None, 256, 256, 32) 0           concatenate_3[0][0]              
__________________________________________________________________________________________________
separable_conv2d_24 (SeparableC (None, 256, 256, 16) 816         dropout_7[0][0]                  
__________________________________________________________________________________________________
batch_normalization_24 (BatchNo (None, 256, 256, 16) 64          separable_conv2d_24[0][0]        
__________________________________________________________________________________________________
activation_24 (Activation)      (None, 256, 256, 16) 0           batch_normalization_24[0][0]     
__________________________________________________________________________________________________
separable_conv2d_25 (SeparableC (None, 256, 256, 16) 416         activation_24[0][0]              
__________________________________________________________________________________________________
batch_normalization_25 (BatchNo (None, 256, 256, 16) 64          separable_conv2d_25[0][0]        
__________________________________________________________________________________________________
activation_25 (Activation)      (None, 256, 256, 16) 0           batch_normalization_25[0][0]     
__________________________________________________________________________________________________
separable_conv2d_26 (SeparableC (None, 256, 256, 16) 416         activation_25[0][0]              
__________________________________________________________________________________________________
batch_normalization_26 (BatchNo (None, 256, 256, 16) 64          separable_conv2d_26[0][0]        
__________________________________________________________________________________________________
activation_26 (Activation)      (None, 256, 256, 16) 0           batch_normalization_26[0][0]     
__________________________________________________________________________________________________
conv2d (Conv2D)                 (None, 256, 256, 3)  51          activation_26[0][0]              
==================================================================================================
Total params: 727,966
Trainable params: 723,550
Non-trainable params: 4,416
__________________________________________________________________________________________________
None
Epoch 1/500
 1/18 [>.............................] - ETA: 9:11 - loss: 0.750
…
